…
# pip install flash-attn --no-build-isolation
```

```python
# ! pip install flash_attn -U
```

```python
from torch import bfloat16
import transformers
```

```python
model_id = "../Phi3MOE"
```

```python
model = transformers.AutoModelForCausalLM.from_pretrained(
model_id,
trust_remote_code=True,
torch_dtype=bfloat16,
device_map='auto'
)
```

Output:
```text
Loading checkpoint shards: 0%| | 0/17 [00:00<?, ?it/s]

WARNING:root:Some parameters are on the meta device device because they were offloaded to the cpu.
```

```python
model.eval()
```

Output:
```text
PhiMoEForCausalLM(
(model): PhiMoEModel(
(embed_tokens): Embedding(32064, 4096)
(layers): ModuleList(
(0-31): 32 x PhiMoEDecoderLayer(
(self_attn): PhiMoESdpaAttention(
(q_proj): Linear(in_features=4096, out_features=4096, bias=True)
(k_proj): Linear(in_features=4096, out_features=1024, bias=True)
(v_proj): Linear(in_features=4096, out_features=1024, bias=True)
(o_proj): Linear(in_features=4096, out_features=4096, bias=True)
(rotary_emb): Phi3LongRoPEScaledRotaryEmbedding()
)
(block_sparse_moe): PhiMoESparseMoeBlock(
(gate): Linear(in_features=4096, out_features=16, bias=False)
(experts): ModuleList(
(0-15): 16 x PhiMoEBlockSparseTop2MLP(
(w1): Linear(in_features=4096, out_features=6400, bias=False)
(w2): Linear(in_features=6400, out_features=4096, bias=False)
(w3): Linear(in_features=4096, out_features=6400, bias=False)
(act_fn): SiLU()
)
(input_layernorm): LayerNorm((4096,), eps=1e-05, elementwise_affine=True)
(post_attention_layernorm): LayerNorm((4096,), eps=1e-05, elementwise_affine=True)
)
(norm): LayerNorm((4096,), eps=1e-05, elementwise_affine=True)
)
(lm_head): Linear(in_features=4096, out_features=32064, bias=True)
)
```

```python
tokenizer = transformers.AutoTokenizer.from_pretrained(model_id)
```

```python
# generate_text = transformers.pipeline(
# model=model, tokenizer=tokenizer,
# return_full_text=False, # if using langchain set True
# task="text-generation",
# # we pass model parameters here too
# temperature=0.1, # 'randomness' of outputs, 0.0 is the min and 1.0 the max
…
