…
keras.layers.Conv2D(filters=10, kernel_size=(5,5), input_shape=(28,28,1),activation='relu'),
keras.layers.MaxPooling2D(),
keras.layers.Conv2D(filters=20, kernel_size=(5,5), activation='relu'),
keras.layers.MaxPooling2D(),
keras.layers.Flatten(),
keras.layers.Dense(10)
])

model.compile(loss=keras.losses.SparseCategoricalCrossentropy(from_logits=True),metrics=['acc'])

model.summary()
```

Output:
```text
Model: "sequential_1"
_________________________________________________________________
Layer (type) Output Shape Param #
=================================================================
conv2d_1 (Conv2D) (None, 24, 24, 10) 260
_________________________________________________________________
max_pooling2d (MaxPooling2D) (None, 12, 12, 10) 0
_________________________________________________________________
conv2d_2 (Conv2D) (None, 8, 8, 20) 5020
_________________________________________________________________
max_pooling2d_1 (MaxPooling2 (None, 4, 4, 20) 0
_________________________________________________________________
flatten_1 (Flatten) (None, 320) 0
_________________________________________________________________
dense_1 (Dense) (None, 10) 3210
=================================================================
Total params: 8,490
Trainable params: 8,490
Non-trainable params: 0
_________________________________________________________________
```

Notice that the number of trainable parameters (~8.5K) is dramatically smaller than in previous cases. This happens because convolutional layers in general have few parameters, and dimensionality of the image before applying final dense layer is significantly reduced. Small number of parameters have positive impact on our models, because it helps to prevent overfitting even on smaller dataset sizes.
…
keras.layers.MaxPooling2D(pool_size = 2, strides = 2),
keras.layers.Conv2D(filters = 16, kernel_size = 5, strides = 1, activation = 'relu'),
keras.layers.MaxPooling2D(pool_size = 2, strides = 2),
keras.layers.Flatten(),
keras.layers.Dense(120, activation = 'relu'),
keras.layers.Dense(84, activation = 'relu'),
keras.layers.Dense(10, activation = 'softmax')])

model.summary()
```

Output:
```text
Model: "sequential_3"
_________________________________________________________________
Layer (type) Output Shape Param #
=================================================================
conv2d_8 (Conv2D) (None, 28, 28, 6) 456
_________________________________________________________________
max_pooling2d_6 (MaxPooling2 (None, 14, 14, 6) 0
_________________________________________________________________
conv2d_9 (Conv2D) (None, 10, 10, 16) 2416
_________________________________________________________________
max_pooling2d_7 (MaxPooling2 (None, 5, 5, 16) 0
_________________________________________________________________
flatten_3 (Flatten) (None, 400) 0
_________________________________________________________________
dense_9 (Dense) (None, 120) 48120
_________________________________________________________________
dense_10 (Dense) (None, 84) 10164
_________________________________________________________________
dense_11 (Dense) (None, 10) 850
=================================================================
Total params: 62,006
Trainable params: 62,006
Non-trainable params: 0
_________________________________________________________________
```

Training this network properly will take significant amount of time, and should preferably be done on GPU-enabled compute.

```python
model.compile(optimizer = 'adam', loss = 'sparse_categorical_crossentropy', metrics = ['acc'])
…
