…
generator.add(Conv2DTranspose(64, kernel_size=3, padding="same"))
generator.add(BatchNormalization(momentum=0.8))
generator.add(Activation("relu"))
generator.add(Conv2DTranspose(1, kernel_size=3, padding="same"))
generator.add(Activation("tanh"))

optimizer = keras.optimizers.Adam(0.0001) #, 0.5)

generator.compile(loss='binary_crossentropy',optimizer=optimizer,metrics=['accuracy'])
generator.summary()
```

Output:
```text
Model: "sequential_3"
_________________________________________________________________
Layer (type) Output Shape Param #
=================================================================
dense_7 (Dense) (None, 6272) 633472
_________________________________________________________________
reshape_1 (Reshape) (None, 7, 7, 128) 0
_________________________________________________________________
up_sampling2d (UpSampling2D) (None, 14, 14, 128) 0
_________________________________________________________________
conv2d_transpose (Conv2DTran (None, 14, 14, 128) 147584
_________________________________________________________________
batch_normalization_3 (Batch (None, 14, 14, 128) 512
_________________________________________________________________
activation (Activation) (None, 14, 14, 128) 0
_________________________________________________________________
up_sampling2d_1 (UpSampling2 (None, 28, 28, 128) 0
_________________________________________________________________
conv2d_transpose_1 (Conv2DTr (None, 28, 28, 64) 73792
_________________________________________________________________
batch_normalization_4 (Batch (None, 28, 28, 64) 256
_________________________________________________________________
activation_1 (Activation) (None, 28, 28, 64) 0
_________________________________________________________________
conv2d_transpose_2 (Conv2DTr (None, 28, 28, 1) 577
```

```python
discriminator = Sequential()

discriminator.add(Conv2D(32, kernel_size=3, strides=2, input_shape=(28,28,1), padding="same"))
discriminator.add(LeakyReLU(alpha=0.2))
discriminator.add(Dropout(0.25))
discriminator.add(Conv2D(64, kernel_size=3, strides=2, padding="same"))
discriminator.add(ZeroPadding2D(padding=((0,1),(0,1))))
discriminator.add(BatchNormalization(momentum=0.8))
discriminator.add(LeakyReLU(alpha=0.2))
…
