…
self.pool = nn.MaxPool2d(2, 2)
self.conv2 = nn.Conv2d(10, 20, 5)
self.fc = nn.Linear(320,10)

def forward(self, x):
x = self.pool(nn.functional.relu(self.conv1(x)))
x = self.pool(nn.functional.relu(self.conv2(x)))
x = x.view(-1, 320)
x = nn.functional.log_softmax(self.fc(x),dim=1)
return x

net = MultiLayerCNN()
summary(net,input_size=(1,1,28,28))
```

Output:
```text
==========================================================================================
Layer (type:depth-idx) Output Shape Param #
==========================================================================================
├─Conv2d: 1-1 [1, 10, 24, 24] 260
├─MaxPool2d: 1-2 [1, 10, 12, 12] --
├─Conv2d: 1-3 [1, 20, 8, 8] 5,020
├─MaxPool2d: 1-4 [1, 20, 4, 4] --
├─Linear: 1-5 [1, 10] 3,210
==========================================================================================
Total params: 8,490
Trainable params: 8,490
Non-trainable params: 0
Total mult-adds (M): 0.47
==========================================================================================
Input size (MB): 0.00
Forward/backward pass size (MB): 0.06
Params size (MB): 0.03
Estimated Total Size (MB): 0.09
==========================================================================================
…
self.fc1 = nn.Linear(120,64)
self.fc2 = nn.Linear(64,10)

def forward(self, x):
x = self.pool(nn.functional.relu(self.conv1(x)))
x = self.pool(nn.functional.relu(self.conv2(x)))
x = nn.functional.relu(self.conv3(x))
x = self.flat(x)
x = nn.functional.relu(self.fc1(x))
x = self.fc2(x)
return x

net = LeNet()

summary(net,input_size=(1,3,32,32))
```

Output:
```text
==========================================================================================
Layer (type:depth-idx) Output Shape Param #
==========================================================================================
├─Conv2d: 1-1 [1, 6, 28, 28] 456
├─MaxPool2d: 1-2 [1, 6, 14, 14] --
├─Conv2d: 1-3 [1, 16, 10, 10] 2,416
├─MaxPool2d: 1-4 [1, 16, 5, 5] --
├─Conv2d: 1-5 [1, 120, 1, 1] 48,120
├─Flatten: 1-6 [1, 120] --
├─Linear: 1-7 [1, 64] 7,744
├─Linear: 1-8 [1, 10] 650
==========================================================================================
Total params: 59,386
Trainable params: 59,386
Non-trainable params: 0
Total mult-adds (M): 0.65
==========================================================================================
Input size (MB): 0.01
Forward/backward pass size (MB): 0.05
Params size (MB): 0.24
Estimated Total Size (MB): 0.30
==========================================================================================
…
