…
W0820 17:50:17.120162 4604204480 deprecation_wrapper.py:119] From /Users/tianqiyang/anaconda3/envs/3point6/lib/python3.7/site-packages/keras/optimizers.py:790: The name tf.train.Optimizer is deprecated. Please use tf.compat.v1.train.Optimizer instead.

W0820 17:50:17.130156 4604204480 deprecation_wrapper.py:119] From /Users/tianqiyang/anaconda3/envs/3point6/lib/python3.7/site-packages/keras/backend/tensorflow_backend.py:3295: The name tf.log is deprecated. Please use tf.math.log instead.

_________________________________________________________________
Layer (type) Output Shape Param #
=================================================================
conv2d_1 (Conv2D) (None, 1, 28, 32) 3616
_________________________________________________________________
max_pooling2d_1 (MaxPooling2 (None, 1, 14, 32) 0
_________________________________________________________________
conv2d_2 (Conv2D) (None, 1, 14, 32) 4128
_________________________________________________________________
max_pooling2d_2 (MaxPooling2 (None, 1, 7, 32) 0
_________________________________________________________________
conv2d_3 (Conv2D) (None, 1, 7, 32) 4128
_________________________________________________________________
max_pooling2d_3 (MaxPooling2 (None, 1, 4, 32) 0
_________________________________________________________________
flatten_1 (Flatten) (None, 128) 0
_________________________________________________________________
dense_1 (Dense) (None, 10) 1290
_________________________________________________________________
activation_1 (Activation) (None, 10) 0
=================================================================
Total params: 13,162
Trainable params: 13,162
Non-trainable params: 0
_________________________________________________________________
None
```

The brief description of the CNN architecture is described as above. Please note that each layer has the number of parameters needs to be trained. More parameters meaning longer to train the network on a dataset. We have 3 convolutional layers and 3 max-pooling layers in total and more than 10000 parameters to train.
…
